hw1/model.npy (npy, 1432 bytes, 1 tensors)

array f8 [163, 1]
000000 ab b9 4c 48 3a 23 3b 40 72 aa e1 4f d9 1b f6 bf
       27.137608069164042 -1.3817990417834634
000010 18 ee 97 47 8a be b3 3f 22 e7 69 3e 12 e9 c3 bf
       0.07712616203200928 -0.1555502705339729
000020 c5 05 22 44 6c 66 b4 bf 60 90 8f ae f1 85 cc 3f
       -0.07968784964943783 0.22283764861561206
000030 78 a7 b9 2b 69 24 f5 bf 13 ba 5e 84 09 53 eb bf
       -1.3213893611923293 -0.8538863740303121
000040 57 fe 0c 9f 62 15 0d c0 24 61 78 77 e1 bc b3 bf
       -3.6354420114364916 -0.07710084120515553
000050 dd bc 75 aa 2e 59 1c 40 65 17 2e 2b 00 71 cc bf
       7.087092078624861 -0.2221985064354001
000060 7c f0 76 11 51 ac 0e c0 8c 14 53 6a 5e 73 e1 3f
       -3.83413900036072 0.5453331066752454
000070 e0 d8 2b 0f b9 6a ab 3f 11 46 7c d8 6d bc ea bf
       0.053548606016123435 -0.8355015972358065
000080 3d f6 ad d5 11 86 c3 bf c0 9e db e4 be 5c e8 3f
       -0.15252898152896135 0.7613214940910993
000090 52 64 f1 1c e8 10 d6 3f 46 3b 62 56 46 31 fc bf
       0.3447819025655622 -1.762029969631571
0000a0 17 93 04 8b b3 ee a6 bf 59 9b 2b a8 41 d8 79 bf
       -0.044789896697954905 -0.0063097538684136695
0000b0 01 72 00 e0 59 19 6c bf b5 29 b3 f5 96 d7 ed 3f
       -0.0034300570842005222 0.9325671004128738
0000c0 7e 1f bc 2c 42 20 e5 3f 6b bb bf 38 90 78 e0 3f
       0.6601878045776031 0.5147172077539443
0000d0 08 20 1b 75 c7 48 14 c0 13 be c2 bc 4d b5 cf 3f
       -5.071073369770609 0.24772044865447693
0000e0 e8 19 95 c4 0a a7 18 40 bb 96 be 20 8d 8a c0 bf
       6.163127013779082 -0.12922824953891685
0000f0 ec 6e 5f 40 dd f1 fc bf 2e c1 c2 d1 ac fe cb bf
       -1.809048892456242 -0.21870956651901835
000100 3a 30 ab 4a 2b 54 8e bf 09 65 e5 14 0f 8a e5 bf
       -0.014808977333267238 -0.6731028946043419
000110 bf f9 b1 0b ff 70 bb bf 89 5e e5 b5 17 db ea 3f
       -0.10719293628242264 0.8392447044997918
000120 5d 34 88 b7 73 41 d5 bf 6f a9 3a 95 87 37 ec 3f
       -0.3321198742203871 0.8817785181648058
000130 4c 8e 56 16 46 e5 b9 bf 9b 18 a8 15 83 25 c4 bf
       -0.10115469022144302 -0.15739477689220824
000140 f4 5b 4d 3f 71 10 a1 bf 11 e0 91 93 0a e4 f8 3f
       -0.03332857034427397 1.5556741489836023
000150 c9 ea d6 08 bd 6c f3 3f 04 be 8f 76 8e 59 ee 3f
       1.214047464875579 0.948432189526955
000160 58 62 6d 7e ab 01 18 c0 8c 68 f8 11 6c 29 f1 3f
       -6.001630759645728 1.0726128293959247
000170 4d 64 5e 24 e3 21 20 40 1e 19 4a 8a 91 8c c1 bf
       8.066186081430851 -0.1371023106805262
000180 83 b8 25 56 0c 8a a0 3f 11 f8 34 8e 8c 16 d4 bf
       0.03230322410205224 -0.31387628447907995
000190 0a 3b 6e 9d 60 04 94 bf 5e 2a 11 a0 6f 47 a2 3f
       -0.019547948464203414 0.03570126370376124
0001a0 f2 28 ad 1a fb dc c3 bf 9a 94 9c 63 cb 67 e4 bf
       -0.15518130114134682 -0.6376702256717579
0001b0 c3 33 9b 6a 2b 37 c8 3f 1a 5a ea ac e2 8f e0 bf
       0.18918364243873328 -0.5175641419653545
0001c0 4a c8 0f 51 ac 89 c2 3f 15 1c 85 2a a5 40 c1 bf
       0.1448264499482 -0.13478531433267507
0001d0 61 17 76 34 e9 0e b9 3f b4 76 e0 d7 f4 2b f2 bf
       0.09788377314370457 -1.1357315476119938
0001e0 b3 b3 18 72 45 5a f6 3f ad 78 1e 14 37 83 db 3f
       1.3970388848203867 0.42988373722790635
0001f0 49 1d 03 b1 b4 73 18 c0 2f 1f 34 db f7 09 04 40
       -6.1129939706946255 2.5048672795563998
000200 e2 6f ff 52 dd 73 26 40 04 f6 ba 32 29 6c b2 3f
       11.226297944718628 0.07196290482075801
000210 54 1b 10 3d f8 3b a0 bf ec da 5d 5d ba bd c1 bf
       -0.03170753236195503 -0.1386025386707027
000220 c8 c6 35 d3 ab 00 d4 bf 21 3a a3 97 e7 9b d4 3f
       -0.31254096628172734 0.32201566513404783
000230 86 7f 99 57 65 43 c9 bf 63 11 a7 0b 91 01 c8 bf
       -0.1973692586643631 -0.1875478083512788
000240 ba d9 29 f0 6d 12 b9 3f b2 ec af d0 ba d4 f0 3f
       0.0979374610268228 1.0519359733432734
000250 c0 e1 59 37 a9 28 86 bf 4c 83 05 eb ba 3d ae bf
       -0.010819742204362437 -0.05906471365847796
000260 bd 40 f1 46 4b 46 af bf 66 78 90 54 e9 15 fc 3f
       -0.061083176050148215 1.7553494742674274
000270 af 22 2a ce b6 1e fc bf b0 16 fe 34 29 a9 e2 bf
       -1.7574985554985394 -0.5831495318422721
000280 74 7c 0d 4c 6d f6 10 c0 45 4f 7f 08 c8 36 11 40
       -4.240651310275201 4.303497441072811
000290 58 eb 62 38 11 68 2d 40 ae 3b 0f bb c2 8d b3 bf
       14.703256380152808 -0.07638184611208373
0002a0 1b 50 7c e0 69 39 d7 3f de b0 81 ad dc 80 ca bf
       0.3628792469255601 -0.20705755683901023
0002b0 a6 16 66 28 1a c5 91 bf 92 2e 66 27 ed 3d db 3f
       -0.017353447643037832 0.4256546864278131
0002c0 7f 70 75 0d 34 c0 d0 bf 4e 4c 4b d9 f7 ad ed bf
       -0.26173116030054894 -0.9274863475824391
0002d0 1f 23 d4 cf 8c 4c c2 3f 2c d0 0c b7 3f c1 b5 3f
       0.14296112201579889 0.08497999400134465
0002e0 cb 9d 94 60 8a e4 cd bf e8 45 02 c6 04 de c0 3f
       -0.2335370036682732 0.13177547138597778
0002f0 46 2d 26 52 a9 18 bc bf 32 87 37 0f e9 4a d4 3f
       -0.10975130324930146 0.31707216726327936
000300 fa 71 68 44 96 7d 01 c0 b5 58 46 40 96 78 f1 bf
       -2.1863217682241585 -1.0919401655897165
000310 d2 50 90 12 3e c3 d8 bf a5 f3 2b 42 3f 1d 20 40
       -0.3869166547094781 8.057123248925402
000320 3e 4f 8b 75 09 76 32 40 b6 04 5a b0 9a d0 c7 bf
       18.46108183528053 -0.1860535966007199
000330 76 e4 f7 2f 36 c1 eb bf 06 55 93 64 f2 22 f3 bf
       -0.8673354088670198 -1.1960319451075647
000340 f0 ce 2e 37 1e 2d d3 3f a5 fd e7 18 07 19 b6 bf
       0.29962878598165243 -0.08631939275800578
000350 0e 25 21 84 8f 4f e9 bf c6 88 94 1b e5 0c e0 bf
       -0.7909619885114425 -0.5015740908313766
000360 fc 93 55 74 f7 de c9 3f bb 32 96 c6 c0 ec fc bf
       0.20211690121064396 -1.8078010327619
000370 7a 6a af f7 86 2c d5 bf 95 86 67 19 65 1d ce 3f
       -0.33084272563943495 0.23527206173371398
000380 0b 52 7d 2c d3 91 c7 bf 9a 50 8a 36 26 82 01 c0
       -0.18413772270527348 -2.188549448104891
000390 48 da f3 12 af 75 e2 3f cd 8e 63 37 6f b6 c2 bf
       0.5768657083670599 -0.14619245724235555
0003a0 d8 0f cb 68 72 90 15 40 80 24 11 ee 96 3e 2d 40
       5.391061437028803 14.622245254128075
0003b0 9b 73 25 4e e1 a9 37 40 3b 7b 38 53 eb f0 c4 bf
       23.66359413542123 -0.1636022716856703
0003c0 37 8e 43 a0 e1 6e fc bf 1f b7 4c 06 8f b1 d4 3f
       -1.7770706425007015 0.32333732238008567
0003d0 13 69 99 e8 3d 56 e6 3f dd 64 9f 38 17 81 e4 bf
       0.6980275671915329 -0.640758143035011
0003e0 ad f6 d4 aa 60 2f cb bf 9f 5b de 0b af 45 f8 bf
       -0.2123833498134692 -1.5170126403442976
0003f0 52 44 f6 3c c5 23 d6 3f f3 fb 8f ec 81 06 f8 bf
       0.34593325570410116 -1.5015887490005724
000400 08 ea 6d 09 1c 2f b3 3f 44 15 e3 a1 33 8a a3 3f
       0.07493758421143337 0.03816377020988651
000410 7f 95 a0 98 21 ee 5c bf bd 85 4f b7 27 7f 07 c0
       -0.0017657592857259483 -2.937087471117336
000420 76 03 ff 34 22 04 03 40 17 c7 11 fb 0f e2 e1 3f
       2.377018369705577 0.5588455108356553
000430 5e 66 86 e9 ea b4 23 40 0d be 21 39 41 7d 37 40
       9.853354737907633 23.489276476610076
000440 03 e3 9b d2 d3 19 4a 40 b7 18 18 fe 30 2a c1 bf
       52.20177681552561 -0.13410007864894677
000450 56 be a1 c5 23 ae 03 c0 12 8a 2b 6b ce 65 e3 3f
       -2.4600291671738814 0.6061775296369112
000460 e0 fd 22 30 e6 5f ce 3f 99 d1 d3 f6 75 74 eb bf
       0.237301610473863 -0.8579664059494007
000470 ac d2 45 06 41 da de bf 1d 09 be 9e 12 05 d4 bf
       -0.4820711671120914 -0.3128096151559861
000480 85 12 7b 50 14 21 98 3f 2e 35 d3 b4 70 26 0d 40
       0.023563687717585786 3.6437696577983365
000490 82 12 ad 01 64 83 c9 3f 97 aa 58 63 46 6f eb 3f
       0.19932222444380804 0.8573333683355767
0004a0 70 c4 6e 04 10 d0 b2 3f b8 14 b3 09 02 f3 10 c0
       0.07348728283138128 -4.237312461428864
0004b0 5e 18 28 ef 17 32 d4 3f 0b 55 15 af bf c5 e2 bf
       0.3155574641717801 -0.5866392535778301
0004c0 05 02 6c 7d 28 c9 2c 40 db f1 1b 3e df 18 3f 40
       14.392887038645322 31.097156411955307
0004d0 7d cb df 76 bc 26 55 40 89 85 0b 8b 89 f2 a2 bf
       84.60525295119255 -0.037006662581698775
0004e0 46 2f 29 ee 66 a8 07 40 53 38 71 87 8c e7 01 40
       2.9572275739973604 2.2380610066821105
0004f0 b8 95 8d 40 f8 33 d6 bf d5 d3 63 0c 5b 1a eb bf
       -0.3469219808960946 -0.8469672433844787
000500 a8 40 5f c0 7a 3b d1 bf a3 42 53 0e f3 80 df 3f
       -0.2692553404458615 0.49224544905613693
000510 35 a4 86 d0 6a 4b ce 3f
       0.23667655164652648
