hw1/model_best.npy (npy, 1432 bytes, 1 tensors)

array f8 [163, 1]
0	0xbff254c4d15fd0a1	-1.1456955126459791
1	0x3fbea3606e140451	0.11968043029266197
2	0x3fe90282a8432258	0.7815564428684167
3	0x3fb315461215c9c0	0.07454336110621451
4	0xbfaa6bc5261ddd40	-0.05160347070971705
5	0x3fe5c67e87f6a74b	0.6804802566086691
6	0x3fe4665e7b05d6f4	0.6374962237157136
7	0xbfe6194b8b3c4b4e	-0.6905877799457387
8	0xbf9294db4ed92cb7	-0.018145968139191306
9	0xbf73a99008f89f50	-0.004800379406823499
10	0x3f85b57527caca4e	0.010600009228572873
11	0xbfad601c39509bbb	-0.05737388801235662
12	0xbfa1ad8a8f8d8ed5	-0.03452713968615987
13	0x3fc9ba7eb9eac832	0.20100387647613754
14	0xbfb990535ee47d40	-0.09985848490440663
15	0xbf521d5f651788c3	-0.0011056357947088348
16	0x3f4fe606224d6b28	0.0009734659148351353
17	0xbf62c642c08c0c80	-0.002291803717868357
18	0x3fc704b4418f55e2	0.17983105851332853
19	0xbfcaea4263e122c5	-0.21027402760434746
20	0x3fe693a4cfe3924c	0.7055229244547916
21	0x3fd963055c6153e0	0.39666875859739825
22	0xbfe46a876ec3ecdc	-0.6380040324578675
23	0xbfaf70d402122330	-0.06140768552092479
24	0x3f8fe1872c65bf00	0.015566879312899129
25	0x3fa0590d4d8485c0	0.03192941256771631
26	0x3f85e779abacac91	0.010695410300817694
27	0xbf8c055a0efc813a	-0.013682082731577883
28	0xbf9affaa8f7acb62	-0.02636591435175307
29	0x3f7b88eaba6f35f0	0.006722371012938919
30	0x3f8a7d860eec40c8	0.012934729891214039
31	0x3f7ebdb1abf37ec0	0.007505125074402208
32	0x3fd743bc94e5852c	0.36350931683235177
33	0xbf5ff699ba9eecea	-0.001950883985485425
34	0x3f52fe1de1b531d7	0.0011592189610666237
35	0x3fc60cdac6f0b8b2	0.17226729120142675
36	0xbfc74a7f57cdb9ac	-0.18196098124776705
37	0x3fd14e4b8dda74cc	0.2704037556921548
38	0xc003843df4a7d7b8	-2.4395712960931313
39	0xbfe7e4b9183da900	-0.7466702912763878
40	0xbfeb60f1fc9cce6e	-0.855584138282621
41	0x3fca4132de539ac0	0.205114706571484
42	0x3fb6ae2d1fb002d8	0.08859521888372102
43	0xbfb9fcd906f79b9c	-0.10151440067384815
44	0xbf2308924e006ec0	-0.00014521394678090015
45	0x3f8b0f90da5295d4	0.013213283217122042
46	0x3fc0eeaee2b6d7f4	0.13228403158217328
47	0xbfb058eab82ddfa7	-0.06385676380693771
48	0x3f72f446c03d1f18	0.004627491350966094
49	0xbfc70662caef2fbf	-0.17988238247778374
50	0xbfe2fcbc925d6474	-0.5933516367614531
51	0x3f4e8e36e80e4b2c	0.0009324806306828296
52	0xbf455070cf3eeada	-0.0006504584148311024
53	0xbfb447bcbd6b8b62	-0.07921962379945804
54	0xbfa6ec96c143a244	-0.04477377995664658
55	0xbfc9a3a22511355b	-0.2003061944000518
56	0x3ffaec78b9446920	1.6827323185921799
57	0xbff50b761f785590	-1.3152981976794287
58	0x400dcf0963855e4a	3.7260921263767033
59	0xbfc262c856c919d0	-0.14363960492683114
60	0x3fa04197a3d20070	0.03175042986640697
61	0x3fb01703f14a29e4	0.06285118714200838
62	0x3f92461c59a726a6	0.01784557625959473
63	0xbf946d8bb12e0342	-0.019949133576577134
64	0xbfc250cb9d9ce116	-0.1430906791299626
65	0x3f95d52546a0fdf6	0.021320898471683912
66	0x3f927cac285a59fc	0.01805371280951283
67	0xbf9fe070c4687938	-0.031129610050009776
68	0xc001e29a4d919cc6	-2.2356458721220376
69	0x3f4614e15d020133	0.0006738758475109185
70	0x3ecd402bcfbd3800	3.4869514119800424e-06
71	0x3fae01cd764c6578	0.058607502642369746
72	0xbf9a3f2d2b0e6b80	-0.025631623986196228
73	0x3fc69fa073242313	0.176746422024984
74	0x4000aec3b5ec361d	2.0853342259131424
75	0xbfcea8471dc71a40	-0.23951043085090085
76	0x3fca0b22a1d1f0c8	0.20346482182856662
77	0x3fbd5effdc4219f0	0.11473082663915313
78	0xbf65df6b24266a00	-0.002670010814836532
79	0xbfa7e440d94d1dd8	-0.04666330959895121
80	0xbf94d8958406b030	-0.020357452567324852
81	0xbf997cc7114d6a63	-0.024890051299147575
82	0xbf691a188d0f3ec0	-0.0030642013084401787
83	0x3f909843f00e2a0b	0.01620584633523418
84	0xbfa2b709b3625cf4	-0.036552718303193205
85	0x3fce2a047d163a9c	0.23565727336650333
86	0xbff2296f18a0e6c3	-1.135115715222512
87	0x3f44f4209bc18824	0.0006394538136300682
88	0xbf1807baecfcc7c0	-9.166792301298823e-05
89	0xbfc07af2c188ca76	-0.12875208330077087
90	0x3faf6c3b7903ae20	0.061372622034323365
91	0xbf870ae055f50320	-0.011251213668062088
92	0xbfcf7cb84ccedc20	-0.24599364996331108
93	0x4008cdfce454dbc0	3.1005800093075493
94	0xbfb7a945b4eee508	-0.09242664019884128
95	0x3fc1717f30b06b64	0.13627614858054493
96	0x3fb70b9bf96121e0	0.09002089346279929
97	0xbfc888af87ffb618	-0.19167131558008133
98	0xbfb06c3f9e038f90	-0.06415174110185107
99	0x3faa18688e2db7a6	0.050967471462043876
100	0x3fd8f4a1fc419408	0.3899311984480964
101	0xbf955275c8702711	-0.020822372778673662
102	0xbf99afc1512ab654	-0.025084515170126956
103	0xbfce13de307dc3be	-0.23498132102716157
104	0xbf8c9ee509386000	-0.01397494253528464
105	0x3f556dfbce0127cf	0.0013079604177783537
106	0xbf65a5393f7fd465	-0.002642261326395489
107	0x3f9af5474ed64390	0.026326288401438414
108	0x3fa6291efbf3d6e0	0.04328247857658396
109	0xbfaef74a689a6a34	-0.060480427998488656
110	0xc011ac6f717c2654	-4.418393872454164
111	0x3fcbc07223198000	0.21681048120353807
112	0xc0073a4c72092277	-2.9034661206281345
113	0xbfd76947871136ce	-0.36580074491653825
114	0xbfd5dd7a2e373988	-0.3416428996396452
115	0x3fd51cc6e360c790	0.32988140301596847
116	0x3f99c1085d669e32	0.02515042371820026
117	0xbfb0efe3f77ed12d	-0.06616043846480997
118	0xbfdc94ca52b9fe42	-0.44658144072306893
119	0xbf85f32a0888b0d5	-0.010717705140529091
120	0x3fbe5fdf20fce4b9	0.11865038447730826
121	0xbfc18f5b6a693830	-0.1371874112687137
122	0x400a7324c9bceeb9	3.306222511366141
123	0x3f50f533a5c1008b	0.0010350231523404165
124	0xbf1af2d27f3ef5e0	-0.00010280046245632985
125	0xbfcd651f6a2e3656	-0.22964852032275712
126	0x3fc361f52ecbaf34	0.1514269331449839
127	0x3f9467fedc819d58	0.019927961548458967
128	0x4007a57563244cad	2.955790304703973
129	0xc00c10a85793dbe2	-3.5081335870740853
130	0xc008e25a02356e28	-3.1105232403331406
131	0xbf8b653ac19e4a80	-0.013376673730623567
132	0x3f91b66d636b2e00	0.01729746741584215
133	0xbf6bac16cd971d00	-0.0033779569027704293
134	0xbfabb824b809cc14	-0.054139277902230415
135	0xbfa43cc5fc4534b6	-0.03952616409751768
136	0xbf70eaa93c400c00	-0.00413004024085506
137	0xbfb34ffd3050f037	-0.07543928556054956
138	0xbfce994bf646c480	-0.23905324483124346
139	0xbfc0ad1fbbd44ee6	-0.13028332396844816
140	0x40076856264a1625	2.9259455672606856
141	0xbf5558bbb2614dca	-0.0013028939224753893
142	0xbf3bd32551d8d424	-0.00042457257390832366
143	0xbf9ff02543c5e980	-0.031189520131627457
144	0x3fb5390e1a76bd18	0.08290184160317826
145	0xbfb9a16ad041dacf	-0.10011928162007709
146	0xbfe190051b92c268	-0.5488305605450252
147	0x4016c2466e7ce2fe	5.689721800205687
148	0x4004166c6b1255d7	2.5109489788980954
149	0xbfac5cdf8a025a20	-0.05539606628115146
150	0x3fb04bc5eda7f7c0	0.0636562066283366
151	0x3fa5d1a3acf606f0	0.04261504637089597
152	0x3fbeac5fdc7b40ee	0.11981772549484379
153	0x3fc48a93b2774c68	0.16047903265152574
154	0x3fed5a8efabc5a5e	0.9173045060332006
155	0xbfa7cfdfa6484d58	-0.04650782494368383
156	0x3fc6e7314a152fea	0.17893043629953748
157	0x3fdcf5dc922dd59a	0.45250620150849274
158	0xc0075ab586b27827	-2.9192915461744806
159	0xbf52ecd6493656a4	-0.001155099166543585
160	0x3f55fd1fa6a4d48e	0.0013420876590093697
161	0x3fa9904553ef7be0	0.049928823944121126
162	0xbfa86175f912c18c	-0.047618567137195006
