hw2/weight.npy (npy, 1120 bytes, 1 tensors)

array f8 [124, 1]
000000 66 24 68 bf 8b 13 50 c0 1b 43 1f 22 0e 2f 17 40
       -64.30540452165732 5.795952351720895
000010 24 6c 7a ab bc bc 24 c0 96 63 09 01 7e 41 de 3f
       -10.36862693662085 0.4727473268626964
000020 f3 88 10 72 f0 bf e1 3f b8 48 48 a3 93 57 d2 3f
       0.5546800830673234 0.28659525819342546
000030 4b 23 74 ab bc bc 24 c0 c8 9e 5c 3c 75 04 d2 3f
       -10.36862693588923 0.2815220918150598
000040 29 0d 19 d9 0c 3d a0 3f 07 72 04 28 f7 6c fb 3f
       0.0317157759677918 1.7141028941324536
000050 c3 3e 83 94 40 b1 cf 3f b2 5a b2 f5 ec 77 b0 40
       0.24759680987926033 4215.925624034064
000060 80 01 b2 0d b0 b6 d0 bf 8c 15 6c 22 7d a5 c2 bf
       -0.2611503728621969 -0.14567531758090657
000070 88 c6 3a eb d9 fb b1 bf b5 83 c2 ae b2 be d4 bf
       -0.07024919503126104 -0.3241392809523476
000080 46 3a c1 3a af 4f ba bf a1 e6 d8 96 a9 8e ba bf
       -0.10277838882869003 -0.1037393563537088
000090 b2 5e 28 3c 76 79 fe bf 40 68 85 72 ec 34 da bf
       -1.9046537732992133 -0.40948020156577414
0000a0 94 e9 cb e6 bc db 23 c0 82 73 56 4a 48 c3 d0 bf
       -9.929175579444554 -0.2619190908388235
0000b0 70 4a 73 d4 12 a5 c0 bf 59 08 d0 1e 23 c9 f1 bf
       -0.13003764508774251 -1.111605759012056
0000c0 f6 13 24 1b 6c a0 f7 bf ab 2e a7 db f5 c9 c3 bf
       -1.4766655979340135 -0.1546008417629897
0000d0 32 a1 94 73 23 79 c8 bf 81 d0 06 a6 60 3c d5 bf
       -0.1911968530996631 -0.331810152182932
0000e0 88 c6 3a eb d9 fb b1 bf 80 01 b2 0d b0 b6 d0 bf
       -0.07024919503126104 -0.2611503728621969
0000f0 ab 2e a7 db f5 c9 c3 bf b5 83 c2 ae b2 be d4 bf
       -0.1546008417629897 -0.3241392809523476
000100 32 a1 94 73 23 79 c8 bf 40 68 85 72 ec 34 da bf
       -0.1911968530996631 -0.40948020156577414
000110 a1 e6 d8 96 a9 8e ba bf 70 4a 73 d4 12 a5 c0 bf
       -0.1037393563537088 -0.13003764508774251
000120 81 d0 06 a6 60 3c d5 bf 8c 15 6c 22 7d a5 c2 bf
       -0.331810152182932 -0.14567531758090657
000130 59 08 d0 1e 23 c9 f1 bf 46 3a c1 3a af 4f ba bf
       -1.111605759012056 -0.10277838882869003
000140 94 e9 cb e6 bc db 23 c0 82 73 56 4a 48 c3 d0 bf
       -9.929175579444554 -0.2619190908388235
000150 b2 5e 28 3c 76 79 fe bf f6 13 24 1b 6c a0 f7 bf
       -1.9046537732992133 -1.4766655979340135
000160 36 12 2e 9e 51 3d df bf af da 45 fb fb 7e b2 bf
       -0.48811760375272983 -0.07225012669173723
000170 bb 76 48 7e 89 ac c3 bf ac c3 4e 87 40 f4 c1 bf
       -0.15370291391530153 -0.14026648146457654
000180 96 36 9b 65 c9 8e e1 bf 1c 4c 6d 36 d1 1b a1 bf
       -0.5486800179002838 -0.033415353673852816
000190 e7 18 77 57 b1 ff f1 bf ec 89 14 8e 16 7b e6 bf
       -1.1249249855623533 -0.7025254035000308
0001a0 d8 89 45 7d 1e 55 c6 bf f9 3a 75 0d f0 dc cf bf
       -0.17447262875346214 -0.2489299836838297
0001b0 86 e9 84 b5 24 ba 8b bf 62 4b 30 a0 af d0 a9 bf
       -0.013538634099508295 -0.05042027311733112
0001c0 57 28 e5 2d f6 af bf bf e7 57 a8 05 45 af e8 bf
       -0.12377871151434881 -0.771395216989501
0001d0 96 d3 ff 6d 07 c9 dc bf dd 91 0c ab 03 5e d5 bf
       -0.44976983778115576 -0.33386317924512615
0001e0 97 21 7b 7f 1f d1 d5 bf bd 40 b2 b2 41 87 e8 bf
       -0.34088885735811786 -0.7665108194505802
0001f0 af 00 ea 27 e8 6d e9 bf 28 6c cf 3f 5d 9c e8 bf
       -0.7946663646289575 -0.7690874334615545
000200 58 2e 03 aa 2f f0 b0 bf 40 10 f3 00 c3 3a e6 bf
       -0.066164950377407 -0.6946730631393692
000210 35 84 4c 54 09 b6 b5 bf c8 9a 33 e3 af 5b d7 bf
       -0.08480890567854334 -0.3649711340680537
000220 4e a4 5f ca 3e 84 cf bf f3 bf 61 e7 96 fd de bf
       -0.24622330552600363 -0.4842278728092417
000230 36 6e 4f f9 7d 29 91 bf 81 f4 6d ef 09 33 c2 bf
       -0.01675984224480783 -0.14218258086103577
000240 b9 ce c0 cd bc fb b5 bf 99 bc af e6 bf b5 ec bf
       -0.08587245963354463 -0.897186232146754
000250 2c f9 ef 73 7a db e4 bf b2 59 2f a2 85 d2 cd bf
       -0.6517917885210287 -0.23298712176501862
000260 72 3a bd b0 08 74 b4 bf 73 43 09 6d 84 63 be bf
       -0.07989553751870362 -0.11870601331726309
000270 39 4f 09 6d 84 63 be 3f 6a 10 fc 42 a2 eb b3 40
       0.11870601331730492 5099.63383460427
000280 67 fb a7 58 df 24 5b 40 2b c7 b0 fa 62 35 15 40
       108.57613197712418 5.302135388412164
000290 8a df 0a a1 32 f3 b0 3f 9a 6a aa 09 c3 01 a8 3f
       0.06621090347004902 0.04688844197263116
0002a0 f5 26 66 f8 31 16 c5 3f 80 fc e3 42 40 c0 4c bf
       0.16473984364375097 -0.0008774102950893786
0002b0 7f 6c fe e8 8e 3f c0 3f 22 41 86 8c 83 2e f0 3f
       0.12693964363720409 1.01135592357975
0002c0 94 54 80 87 41 18 b4 3f 56 50 76 9e 19 2e 6a bf
       0.0784951167882631 -0.0031958103533700584
0002d0 8a 26 75 fc 5c 0d 89 bf ee 20 e5 98 2e 41 84 bf
       -0.01223251958312523 -0.00988994983767141
0002e0 54 9a ea b0 58 17 b0 3f fd 3d 66 79 b5 c6 cb 3f
       0.06285623854874106 0.21700161388115183
0002f0 5a ca 29 44 00 07 c3 3f 96 f0 f9 6a 7e 7c ae 3f
       0.1486511547878589 0.05954356246817942
000300 26 2a 54 34 b3 a5 9d 3f 3c 7e 38 91 2b b4 d3 3f
       0.028952407902617015 0.3078717153711954
000310 de fb 44 1d 1a 30 c2 3f 2c 3e 96 ab 96 13 b3 3f
       0.14209295682118656 0.07451764763958896
000320 0e 16 59 f8 7a d4 b1 3f f7 66 a4 20 bb 13 c3 3f
       0.0696484428709356 0.14903964132172806
000330 ac 41 2e 34 71 57 bc 3f 64 6a 7a ab bc bc 24 c0
       0.11070926212256066 -10.368626936620053
000340 6a 58 bc 65 63 55 93 3f 60 a0 9b 9e 17 7d 99 bf
       0.018880417904334847 -0.02489125161710637
000350 e8 f2 77 8d 44 ea 13 40 c4 07 96 a7 a1 79 8d 3f
       4.978777132459733 0.014392149855442578
000360 52 d9 99 d9 8c 33 a9 bf 58 f2 58 7d 5d 51 c0 3f
       -0.04922142177831525 0.12748306866150716
000370 3f e5 d3 a2 7b 22 c6 3f 40 fe aa 8d 0c 7d a3 3f
       0.17292733622142895 0.03806342343659397
000380 c4 6c 50 1c 85 c8 b2 3f f8 83 7a ab bc bc 24 c0
       0.07337219182265914 -10.368626936631685
000390 40 f0 01 60 26 fc 43 bf 77 9b e3 31 4a 0c ca 3f
       -0.000609892595107471 0.20350005565634507
0003a0 e2 71 2c 8d c1 ce b6 3f a6 93 64 8a 65 47 ed 3f
       0.08909234711285977 0.9149654105173013
0003b0 d1 20 04 67 dd 40 a0 3f 9f f4 1c 7a aa ad a3 3f
       0.03174487955590311 0.03843434086454888
0003c0 7c 66 35 c4 a5 38 c1 3f f7 84 bb 65 3a 27 b9 3f
       0.13454124527452282 0.09825482352927738
0003d0 84 43 00 8b be 6e 78 bf 42 85 96 1f d8 21 ac 3f
       -0.0059649890026926035 0.054945710998490785
