hw2/weight.npy (npy, 1120 bytes, 1 tensors)

array f8 [124, 1]
0	0xc0500e2c1662c7b3	-64.22144088407985
1	0x4013ff686cbaa2f0	4.999421786204707
2	0xc024e78de179843e	-10.452254339297834
3	0x3fde9e79bf6c91de	0.47842258161315765
4	0x3fe1a03c94ebd7c7	0.5508101376169571
5	0x3fd1e29ad7a49d28	0.27945586260689703
6	0xc024e78de1733c4f	-10.45225433856663
7	0x3fd34a447bdbe5ec	0.30140792937854033
8	0x3fa449889bf946ba	0.039623517074358586
9	0x3ffb49b80bdd4e13	1.7054977858978233
10	0x3fcfbd6cf958f3dc	0.24796831298036082
11	0x40bce3206a603ac9	7395.1266231673735
12	0xbfd115996ef9bece	-0.26694331967790397
13	0xbfc0bdc823b53820	-0.1307916807513161
14	0xbfab7941e14190aa	-0.053659495112499414
15	0xbfd468bce3e5b99a	-0.31889269118883024
16	0xbfb6bffdc5c543e6	-0.08886705473311415
17	0xbfb9ffcacb0c6fe5	-0.10155932862511426
18	0xbffea20ca193db5b	-1.9145628272651354
19	0xbfd939d0f15d8cce	-0.3941538197597766
20	0xc0240698e18a0638	-10.01288513955943
21	0xbfd08261c3352ab3	-0.25795787871599457
22	0xbfbf65065cdecbac	-0.12263526694623178
23	0xbff1dd4e4413bc4a	-1.1165297183286094
24	0xbff7e3e524501f0d	-1.493138448569826
25	0xbfc2e6368f07a439	-0.14765054687384963
26	0xbfc7daa835154b8d	-0.18636038391067836
27	0xbfd5f31a0c123fcc	-0.34296275309406776
28	0xbfab7941e14190aa	-0.053659495112499414
29	0xbfd115996ef9bece	-0.26694331967790397
30	0xbfc2e6368f07a439	-0.14765054687384963
31	0xbfd468bce3e5b99a	-0.31889269118883024
32	0xbfc7daa835154b8d	-0.18636038391067836
33	0xbfd939d0f15d8cce	-0.3941538197597766
34	0xbfb9ffcacb0c6fe5	-0.10155932862511426
35	0xbfbf65065cdecbac	-0.12263526694623178
36	0xbfd5f31a0c123fcc	-0.34296275309406776
37	0xbfc0bdc823b53820	-0.1307916807513161
38	0xbff1dd4e4413bc4a	-1.1165297183286094
39	0xbfb6bffdc5c543e6	-0.08886705473311415
40	0xc0240698e18a0638	-10.01288513955943
41	0xbfd08261c3352ab3	-0.25795787871599457
42	0xbffea20ca193db5b	-1.9145628272651354
43	0xbff7e3e524501f0d	-1.493138448569826
44	0xbfe0d120fda0d852	-0.5255284265210867
45	0xbfad380ea302a9b8	-0.05706830730317186
46	0xbfc1d15d69469102	-0.139201809314848
47	0xbfc04a5a98f4fb23	-0.1272691008434431
48	0xbfe09226bea50a2d	-0.5178407405404123
49	0xbf83f9ea6fa34ba6	-0.009754020244519723
50	0xbff145a66da6322b	-1.0795044215366356
51	0xbfe6dd748f4987e3	-0.7145331190661149
52	0xbfc78284581e54bb	-0.18367056181583571
53	0xbfd00b523b3e2ecc	-0.25069099221648794
54	0xbf82c2068491c5a2	-0.009159136696527185
55	0xbfa5f7d71523e713	-0.04290649540958049
56	0xbfc0c8a295d8304a	-0.13112289730668386
57	0xbfe82da2cc5b721a	-0.7555707923270945
58	0xbfdcad9cd5b8940d	-0.44809647437279027
59	0xbfd500f8dc4f9275	-0.3281843329880652
60	0xbfd6b2900094a27e	-0.35464859062862064
61	0xbfe848d0d619b0d9	-0.7588886434218934
62	0xbfe9d579a899c64a	-0.8073089879018849
63	0xbfe820d22e4da2ce	-0.7540064720497754
64	0xbfaa2922fb786c86	-0.05109509772975067
65	0xbfe6a08d562878f4	-0.7070986445212655
66	0xbfb2a8db1ef31be1	-0.07288903718573138
67	0xbfd650673268fc9f	-0.34865741656171595
68	0xbfd0b2fdd53183eb	-0.2609247762648567
69	0xbfdef357c79950f6	-0.48360247127608547
70	0xbf9dad9bab839828	-0.02898257479036928
71	0xbfc2a0cd336d4958	-0.14553227435187455
72	0xbfb128b23985b774	-0.06702722458223126
73	0xbfed13d884d383c3	-0.9086725801718035
74	0xbfe4c1f695927ecf	-0.6486771508534391
75	0xbfcbcce9bc16bf57	-0.21719094928766466
76	0xbfb3a064fcdfdf0e	-0.07666617559140951
77	0xbfb9322c296f8d45	-0.09842182170500731
78	0x3fb9322c296f9ea8	0.09842182170506908
79	0x40c317a3cb193a07	9775.279635575613
80	0x4059c010d885b85f	103.00102818544973
81	0x4012cbca1764aa63	4.699013104933871
82	0x3faba4955110c01f	0.05399004568641907
83	0x3fafcfd61e7df33b	0.062132540914694855
84	0x3fc5320e3242f2d0	0.16559007124114666
85	0x3f9590c372d78b45	0.02106004131736518
86	0x3fc0b28fa236c614	0.13044925137141716
87	0x3ff036e79eaa186e	1.0134044835881713
88	0x3fb9047156ed9ebc	0.09772404072065916
89	0x3f833bffc1917fd4	0.00939178285096879
90	0x3fa1a96642b56d29	0.03449554027857921
91	0x3f7d6e747722661a	0.007185416167112569
92	0x3fba265b2a69737d	0.10214776788184383
93	0x3fcd1ee2c17950a1	0.22750505873648755
94	0x3fc369438fd7a9af	0.15164989970737738
95	0x3fb31e15a93f1906	0.07467780477518113
96	0x3fa26a8d268d6153	0.035969172435843653
97	0x3fd4c331b6750e5d	0.3244137079056822
98	0x3fc528a7a8587cbc	0.1653031894684086
99	0x3fb61affe311c1b0	0.08634948056874836
100	0x3fb6ad57f8dc7cc9	0.08858251405443975
101	0x3fc2f68d2e5473ab	0.14814915430261286
102	0x3fbfddbbdd8becc9	0.12447714003421874
103	0xc024e78de1798260	-10.452254339296985
104	0x3f9306bf9bcaf1b6	0.01858043087371338
105	0x3fa3bcdcd2859abf	0.03855028219077416
106	0x4013d78cf89932b7	4.960498699522467
107	0x3fa5188a4dae2440	0.041202852232409715
108	0x3f9ed8723c175604	0.030122551839516745
109	0x3fbf814db228be65	0.12306676482762098
110	0x3fc6bfb438fb10af	0.17772534162771111
111	0x3fa44bf3f76a710e	0.039641975357172496
112	0x3fbb3c1e36083a10	0.10638607806343026
113	0xc024e78de1799e04	-10.452254339309555
114	0x3fa0d27952129bf6	0.032855788487090296
115	0x3fc9d26ccf5064d8	0.20173416254764365
116	0x3fbb2edafd4a34ec	0.1061837070830795
117	0x3fedc126d6c68b18	0.9298280901751665
118	0x3f97bcbf94e98256	0.023180955375553168
119	0x3fa28fe1d70458cd	0.036253983971776906
120	0x3fbceed87bb3d6af	0.11301949520187791
121	0x3fb7d2f84cbec6ef	0.09306289552366896
122	0x3f90eccd6c4182b4	0.016528329594054994
123	0x3face3d599546c0b	0.05642573830319727
